…
https://colab.research.google.com/drive/1rDN1bZLaP64KwP2v8t0dbPzXhH43U_uq#printMode=true 3/4
#CNN
model.add(Conv2D(filters=64, kernel_size=(3,3), input_shape=(28,28,1), activation='relu'))
model.add(MaxPool2D(pool_size=(2,2)))
model.add(Flatten())
#ANN
model.add(Dense(128, activation='relu'))
model.add(Dense(10, activation='softmax'))
model.compile(loss='categorical_crossentropy',
optimizer='adam',
metrics=['accuracy'])
model.summary()
Model: "sequential"
_________________________________________________________________
 Layer (type) Output Shape Param #
=================================================================
 conv2d (Conv2D) (None, 26, 26, 64) 640

 max_pooling2d (MaxPooling2D (None, 13, 13, 64) 0
 )
 flatten (Flatten) (None, 10816) 0
 dense (Dense) (None, 128) 1384576
 dense_1 (Dense) (None, 10) 1290
=================================================================
Total params: 1,386,506
Trainable params: 1,386,506
Non-trainable params: 0
_________________________________________________________________
from tensorflow.keras.callbacks import EarlyStopping
early_stop = EarlyStopping(monitor='val_loss', patience=2)
model.fit(X_train, y_train_cat, epochs=2, verbose=1)
Epoch 1/2
1875/1875 [==============================] - 81s 41ms/step - loss: 0.3792 - accuracy: 0.8653
…
