…
model.add(Conv2D(filters=64, kernel_size=(3,3), input_shape=(32,32,3), activation='relu'))
model.add(MaxPool2D(pool_size=(2,2)))
model.add(Flatten())
#ANN
model.add(Dense(64, activation='relu'))
model.add(Dense(128, activation='relu'))
model.add(Dense(10, activation='softmax'))
model.compile(loss='categorical_crossentropy',
optimizer='adam',
metrics=['accuracy'])
model.summary()
Model: "sequential_1"
_________________________________________________________________
 Layer (type) Output Shape Param #
=================================================================
 conv2d_3 (Conv2D) (None, 30, 30, 64) 1792

 max_pooling2d_1 (MaxPooling (None, 15, 15, 64) 0
 2D)
 flatten_1 (Flatten) (None, 14400) 0
 dense_7 (Dense) (None, 64) 921664
 dense_8 (Dense) (None, 128) 8320
 dense_9 (Dense) (None, 10) 1290
=================================================================
Total params: 933,066
Trainable params: 933,066
Non-trainable params: 0
_________________________________________________________________
from tensorflow.keras.callbacks import EarlyStopping
early_stop = EarlyStopping(monitor='val_loss', patience=2)
model.fit(X_train, y_train_cat, epochs=8, steps_per_epoch=500, verbose=1)
Epoch 1/8
…
